…
","timestamp":1638549856432,"user_tz":300,"elapsed":227,"user":{"displayName":"Sirui Hu","photoUrl":"https://lh3.googleusercontent.com/a/default-user=s64","userId":"09569618597630381386"}},"outputId":"4ff28b7c-7cab-4c9f-9747-436d5e1e5c85"},"source":["\n","model.load_state_dict(torch.load(model_path))\n","model = model.to(device)\n","model.eval()"],"execution_count":null,"outputs":[{"output_type":"execute_result","data":{"text/plain":["TSTModelAttention(\n","  (encoder): Encoder(\n","    (rnn): GRU(100, 700, batch_first=True)\n","  )\n","  (generator): GeneratorTransferredSampled(\n","    (proj): Linear(in_features=700, out_features=12458, bias=True)\n","    (logsoftmax): LogSoftmax(dim=2)\n","    (softmax): Softmax(dim=2)\n","    (src_embed): Embedding(12458, 100)\n","  )\n","  (decoder): AttentionDecoder(\n","    (rnn): GRU(800, 700, batch_first=True, dropout=0.2)\n","    (generator): GeneratorTransferredSampled(\n","      (proj): Linear(in_features=700, out_features=12458, bias=True)\n","      (logsoftmax): LogSoftmax(dim=2)\n","      (softmax): Softmax(dim=2)\n","      (src_embed): Embedding(12458, 100)\n","    )\n","    (dropout_layer): Dropout(p=0.2, inplace=False)\n","    (rnn_to_pre): Linear(in_features=1500, out_features=700, bias=False)\n","    (attention): BahdanauAttention(\n","      (key_layer): Linear(in_features=700, out_features=700, bias=False)\n","      (query_layer): Linear(in_features=700, out_features=700, bias=False)\n","      (energy_layer): Linear(in_features=700, out_features=1, bias=False)\n","    )\n","  )\n","  (classifier): LSTMClassifier(\n","    (embedding): Linear(in_features=12458, out_features=300, bias=True)\n","    (lstm): LSTM(300, 128, batch_first=True, bidirectional=True)\n","    (drop): Dropout(p=0.5, inplace=False)\n","    (fc): Linear(in_features=256, out_features=1, bias=True)\n","  )\n","  (line_embed): Embedding(12458, 100)\n","  (y_embed_enc): Embedding(2, 200)\n","  (y_embed_gen): Embedding(2, 200)\n",")"]},"metadata":{},"execution_count":64}]},{"cell_type":"code","metadata":{"colab":{"base_uri":"https://localhost:8080/"},"id":"9YMr-X3V9WXd","executionInfo":{"status":"ok","timestamp":1638547646945,"user_tz":300,"elapsed":7362,"user":{"displayName":"Sirui Hu","photoUrl":"https://lh3.googleusercontent.com/a/default-user=s64","userId":"09569618597630381386"}},"outputId":"745d5ff8-bc78-4
…
